…
"metadata":{}},{"output_type":"display_data","data":{"text/plain":"tokenizer.json: 0.00B [00:00, ?B/s]","application/vnd.jupyter.widget-view+json":{"version_major":2,"version_minor":0,"model_id":"338908ee6990431b91f6809fe183081d"}},"metadata":{}},{"output_type":"display_data","data":{"text/plain":"special_tokens_map.json: 0.00B [00:00, ?B/s]","application/vnd.jupyter.widget-view+json":{"version_major":2,"version_minor":0,"model_id":"a4b7596795ec4c6196a36654af290dfe"}},"metadata":{}},{"execution_count":2,"output_type":"execute_result","data":{"text/plain":"T5ForConditionalGeneration(\n  (shared): Embedding(32128, 512)\n  (encoder): T5Stack(\n    (embed_tokens): Embedding(32128, 512)\n    (block): ModuleList(\n      (0): T5Block(\n        (layer): ModuleList(\n          (0): T5LayerSelfAttention(\n            (SelfAttention): T5Attention(\n              (q): Linear(in_features=512, out_features=384, bias=False)\n              (k): Linear(in_features=512, out_features=384, bias=False)\n              (v): Linear(in_features=512, out_features=384, bias=False)\n              (o): Linear(in_features=384, out_features=512, bias=False)\n              (relative_attention_bias): Embedding(32, 6)\n            )\n            (layer_norm): T5LayerNorm()\n            (dropout): Dropout(p=0.1, inplace=False)\n          )\n          (1): T5LayerFF(\n            (DenseReluDense): T5DenseGatedActDense(\n              (wi_0): Linear(in_features=512, out_features=1024, bias=False)\n              (wi_1): Linear(in_features=512, out_features=1024, bias=False)\n              (wo): Linear(in_features=1024, out_features=512, bias=False)\n              (dropout): Dropout(p=0.1, inplace=False)\n              (act): NewGELUActivation()\n            )\n            (layer_norm): T5LayerNorm()\n            (dropout): Dropout(p=0.1, inplace=False)\n          )\n        )\n      )\n      (1-7): 7 x T5Block(\n        (layer): ModuleList(\n          (0): T5LayerSelfAttention(\n            (SelfAttention): T5Attention(\n              (q): Linear(in_features=512, out_features=384, bias=False)\n              (k): Linear(in_features=512, out_features=384, bias=False)\n              (v): Linear(in_features=512, out_features=384, bias=False)\n              (o): Linear(in_features=384, out_features=512, bias=False)\n            )\n            (layer_norm): T5LayerNorm()\n            (dropout): Dropout(p=0.1, inplace=False)\n          )\n          (1): T5LayerFF(\n            (DenseReluDense): T5DenseGatedActDense(\n              (wi_0): Linear(in_features=512, out_features=1024, bias=False)\n              (wi_1): Linear(in_features=512, out_features=1024, bias=False)\n              (wo): Linear(in_features=1024, out_features=512, bias=False)\n              (dropout): Dropout(p=0.1, inplace=False)\n              (act): NewGELUActivation()\n            )\n            (layer_norm): T5LayerNorm()\n            (dropout): Dropout(p=0.1, inplace=False)\n          )\n        )\n      )\n    )\n    (final_layer_norm): T5LayerNorm()\n    (dropout): Dropout(p=0.1, inplace=False)\n  )\n  (decoder): T5Stack(\n    (embed_tokens): Embedding(32128, 512)\n    (block): ModuleList(\n      (0): T5Block(\n        (layer): ModuleList(\n          (0): T5LayerSelfAttention(\n            (SelfAttention): T5Attention(\n              (q): Linear(in_features=512, out_features=384, bias=False)\n              (k): Linear(in_features=512, out_features=384, bias=False)\n              (v): Linear(in_features=512, out_features=384, bias=False)\n              (o): Linear(in_features=384, out_features=512, bias=False)\n              (relative_attention_bias): Embedding(32, 6)\n            )\n            (layer_norm): T5LayerNorm()\n            (dropout): Dropout(p=0.1, inplace=False)\n          )\n          (1): T5LayerCrossAttention(\n            (EncDecAttention): T5Attention(\n              (q): Linear(in_features=512, out_features=384, bias=False)\n              (k): Linear(in_features=512, out_features=384, bias=False)\n              (v): Linear(in_features=512, out_features=384, bias=False)\n              (o): Linear(in_features=384, out_features=512, bias=False)\n            )\n            (layer_norm): T5LayerNorm()\n            (dropout): Dropout(p=0.1, inplace=False)\n          )\n          (2): T5LayerFF(\n            (DenseReluDense): T5DenseGatedActDense(\n              (wi_0): Linear(in_features=512, out_features=1024, bias=False)\n              (wi_1): Linear(in_features=512, out_features=1024, bias=False)\n              (wo): Linear(in_features=1024, out_features=512, bias=False)\n              (dropout): Dropout(p=0.1, inplace=False)\n              (act): NewGELUActivation()\n            )\n            (layer_norm): T5LayerNorm()\n            (dropout): Dropout(p=0.1, inplace=False)\n          )\n        )\n      )\n      (1-7): 7 x T5Block(\n        (layer): ModuleList(\n          (0): T5LayerSelfAttention(\n            (SelfAttention): T5Attention(\n              (q): Linear(in_features=512, out_features=384, bias=False)\n              (k): Linear(in_features=512, out_features=384, bias=False)\n              (v): Linear(in_features=512, out_features=384, bias=False)\n              (o): Linear(in_features=384, out_features=512, bias=False)\n            )\n            (layer_norm): T5LayerNorm()\n            (dropout): Dropout(p=0.1, inplace=False)\n          )\n          (1): T5LayerCrossAttention(\n            (EncDecAttention): T5Attention(\n              (q): Linear(in_features=512, out_features=384, bias=False)\n              (k): Linear(in_features=512, out_features=384, bias=False)\n              (v): Linear(in_features=512, out_features=384, bias=False)\n              (o): Linear(in_features=384, out_features=512, bias=False)\n            )\n            (layer_norm): T5LayerNorm()\n            (dropout): Dropout(p=0.1, inplace=False)\n          )\n          (2): T5LayerFF(\n            (DenseReluDense): T5DenseGatedActDense(\n              (wi_0): Linear(in_features=512, out_features=1024, bias=False)\n              (wi_1): Linear(in_features=512, out_features=1024, bias=False)\n              (wo): Linear(in_features=1024, out_features=512, bias=False)\n              (dropout): Dropout(p=0.1, inplace=False)\n              (act): NewGELUActivation()\n            )\n            (layer_norm): T5LayerNorm()\n            (dropout): Dropout(p=0.1, inplace=False)\n          )\n        )\n      )\n    )\n    (final_layer_norm): T5LayerNorm()\n    (dropout): Dropout(p=0.1, inplace=False)\n  )\n  (lm_head): Linear(in_features=512, out_features=32128, bias=False)\n)"},"metadata":{}}],"execution_count":2},{"cell_type":"code","source":"decoder.decoder","metadata":{"trusted":true,"execution":{"iopub.status.busy":"2025-07-24T23:57:50.579302Z","iopub.execute_input":"2025-07-24T23:57:50.579593Z","iopub.status.idle":"2025-07-24T23:57:50.586538Z","shell.execute_reply.started":"2025-07-24T23:57:50.579574Z","shell.execute_reply":"2025-07-24T23:57:50.585774Z"}},"outputs":[{"execution_count":3,"output_type":"execute_result","data":{"text/plain":"T5Stack(\n  (embed_tokens): Embedding(32128, 512)\n  (block): ModuleList(\n    (0): T5Block(\n      (layer): ModuleList(\n        (0): T5LayerSelfAttention(\n          (SelfAttention): T5Attention(\n            (q): Linear(in_features=512, out_features=384, bias=False)\n            (k): Linear(in_features=512, out_features=384, bias=False)\n            (v): Linear(in_features=512, out_features=384, bias=False)\n            (o): Linear(in_features=384, out_features=512, bias=False)\n            (relative_attention_bias): Embedding(32, 6)\n          )\n          (layer_norm): T5LayerNorm()\n          (dropout): Dropout(p=0.1, inplace=False)\n        )\n        (1): T5LayerCrossAttention(\n          (EncDecAttention): T5Attention(\n            (q): Linear(in_features=512, out_features=384, bias=False)\n            (k): Linear(in_features=512, out_features=384, bias=False)\n            (v): Linear(in_features=512, out_features=384, bias=False)\n            (o): Linear(in_features=384, out_features=512, bias=False)\n          )\n          (layer_norm): T5LayerNorm()\n          (dropout): Dropout(p=0.1, inplace=False)\n        )\n        (2): T5LayerFF(\n          (DenseReluDense): T5DenseGatedActDense(\n            (wi_0): Linear(in_features=512, out_features=1024, bias=False)\n            (wi_1): Linear(in_features=512, out_features=1024, bias=False)\n            (wo): Linear(in_features=1024, out_features=512, bias=False)\n            (dropout): Dropout(p=0.1, inplace=False)\n            (act): NewGELUActivation()\n          )\n          (layer_norm): T5LayerNorm()\n          (dropout): Dropout(p=0.1, inplace=False)\n        )\n      )\n    )\n    (1-7): 7 x T5Block(\n      (layer): ModuleList(\n        (0): T5LayerSelfAttention(\n          (SelfAttention): T5Attention(\n            (q): Linear(in_features=512, out_features=384, bias=False)\n            (k): Linear(in_features=512, out_features=384, bias=False)\n            (v): Linear(in_features=512, out_features=384, bias=False)\n            (o): Linear(in_features=384, out_features=512, bias=False)\n          )\n          (layer_norm): T5LayerNorm()\n          (dropout): Dropout(p=0.1, inplace=False)\n        )\n        (1): T5LayerCrossAttention(\n          (EncDecAttention): T5Attention(\n            (q): Linear(in_features=512, out_features=384, bias=False)\n            (k): Linear(in_features=512, out_features=384, bias=False)\n            (v): Linear(in_features=512, out_features=384, bias=False)\n            (o): Linear(in_features=384, out_features=512, bias=False)\n          )\n          (layer_norm): T5LayerNorm()\n          (dropout): Dropout(p=0.1, inplace=False)\n        )\n        (2): T5LayerFF(\n          (DenseReluDense): T5DenseGatedActDense(\n            (wi_0): Linear(in_features=512, out_features=1024, bias=False)\n            (wi_1): Linear(in_features=512, out_features=1024, bias=False)\n            (wo): Linear(in_features=1024, out_features=512, bias=False)\n            (dropout): Dropout(p=0.1, inplace=False)\n            (act): NewGELUActivation()\n          )\n          (layer_norm): T5LayerNorm()\n          (dropout): Dropout(p=0.1, inplace=False)\n        )\n      )\n    )\n  )\n  (final_layer_norm): T5LayerNorm()\n  (dropout): Dropout(p=0.1, inplace=False)\n)"},"metadata":{}}],"execution_count":3}
…
